classifier.pth (torch, 49508 bytes, 6 tensors)

0.weight f4 [5, 768]
000000 fa 10 e5 bd 66 fb 1d 3f 40 c6 c3 3d 47 41 02 bf
       -0.11184879 0.6171173 0.095592976 -0.50880855
000010 2b 3a 00 3f 9d 11 e5 bd fe c9 44 3e 81 a8 ad 3e
       0.5008876 -0.11185 0.19217679 0.3391762
000020 2a e3 79 3e 75 28 18 3f 54 7f 70 bd 95 d5 6b be
       0.24403062 0.5943673 -0.05871518 -0.23030694
000030 8a aa 9f be 49 01 32 be de 45 a5 3e 84 1b 25 3f
       -0.31184798 -0.17383303 0.32279867 0.6449511
000040 1c 9a 1b bc 51 e3 18 3f 64 1f 88 bf c6 6e 94 3e
       -0.009497192 0.5972186 -1.063458 0.28990763
000050 1f 26 bc bd b2 5d 28 3f 00 e1 01 be a7 f6 8c 3d
       -0.091869585 0.6576797 -0.12683487 0.06882983
000060 70 9d 7c be 58 bf c7 3e f9 e2 9d 3d 5c 79 32 be
       -0.24669433 0.3901317 0.07709307 -0.17429107
000070 8c f8 2a bd 35 3a 85 3e 9c 5d 53 3d 6b e9 b8 bd
       -0.04174094 0.2602097 0.051602945 -0.09028896
000080 02 48 29 3f 58 1b d4 3d 41 04 42 3e ab 81 3a 3e
       0.661255 0.10356778 0.18946935 0.18213527
000090 4e c7 9b be 33 d7 ad 3e 66 af 81 bf d9 5f 05 bf
       -0.30425495 0.33953246 -1.0131652 -0.52099377
0000a0 b6 8e 64 bf 45 56 2f be f8 92 48 bf 3b eb dd 3b
       -0.8928026 -0.17122753 -0.78349257 0.0067724264
0000b0 f4 8e a0 be f9 4d 61 be 93 40 0e bf 92 2e 5e 3f
       -0.31359065 -0.220024 -0.5556728 0.8678981
0000c0 3d 0d af 3b c8 12 ce 3e 05 e0 09 bd 64 60 da 3e
       0.0053421543 0.40248704 -0.033660907 0.42651665
0000d0 6c 17 0e 3f c1 54 d3 3b b6 3a 61 be bc 24 00 be
       0.5550449 0.0064493124 -0.21995053 -0.12514013
0000e0 38 22 f8 be 57 c3 c7 3e 00 1f 05 3f a1 09 21 bf
       -0.48463607 0.3901622 0.5200043 -0.6290532
0000f0 56 57 b9 3b 14 f5 c6 3e ae 0d 07 3f d2 92 c1 be
       0.005656163 0.38858855 0.5275525 -0.37807328
000100 56 15 19 3e 0b 9b ae be 4f 65 35 be 34 8a 16 3f
       0.14949545 -0.34102663 -0.17714427 0.5880463
000110 ed 8d ff 3e b4 98 a8 3e 5b d8 96 be d1 00 c2 be
       0.49912968 0.32929003 -0.2946194 -0.37891248
000120 24 61 31 bf 8a 9e 24 be a1 4f 00 bf 69 ca e9 3e
       -0.6928885 -0.16076103 -0.50121504 0.4566224
000130 dc 29 ac 3e fe f1 14 be 07 6b b0 3d cd 37 3a be
       0.33625686 -0.14545438 0.08614164 -0.18185349
000140 5e 66 0a be a6 20 b7 3e 41 c7 98 be 40 b2 b7 be
       -0.13515612 0.35767096 -0.2983952 -0.3587818
000150 d7 98 72 3e 83 17 cc 3e a3 44 66 3e 8d 39 ab 3d
       0.23691116 0.39861688 0.2248712 0.08360586
000160 66 f7 f2 3e 0e 57 cf 3d 30 7d 9e 3c ba 24 b8 be
       0.47454375 0.10124026 0.019346803 -0.3596552
000170 ab 82 ee 3d 53 d8 2c 3d a0 86 38 bf 16 ba 16 bf
       0.11646017 0.04219849 -0.7208042 -0.58877695
000180 48 6c fd be 3f 9c 17 bf ea cb 32 3e b3 c0 03 3f
       -0.49496675 -0.5922279 0.174606 0.5146591
000190 c0 3f 41 3e 94 2d 36 bf da 84 44 bd c1 08 14 3e
       0.18871975 -0.71163297 -0.04797826 0.14456464
0001a0 16 24 0c bd 31 4c cb 3e 80 70 f0 3e e7 70 e6 bd
       -0.0342141 0.39706567 0.4696083 -0.11252003
0001b0 64 c5 cf bd 83 cf 55 3e 17 80 c6 be 57 47 6e be
       -0.10145071 0.2087994 -0.387696 -0.23269401
0001c0 63 78 37 3f f3 58 5a bd 00 7b 17 3f 7b a7 b8 bd
       0.7166807 -0.053307485 0.5917206 -0.09016319
0001d0 d2 95 34 3e 06 5c cc 3e 79 72 b6 3e 9a 53 e4 be
       0.17635277 0.39913958 0.3563421 -0.44595033
0001e0 70 aa d1 bd 6b 13 bf 3d 72 9f bc 3e d0 fc 97 bf
       -0.102375865 0.093298756 0.36840397 -1.1874027
0001f0 94 f5 12 3d 7e 09 5e 3e ac 3c c3 be a1 7e d5 bd
       0.035878733 0.21683308 -0.38132226 -0.10424543
000200 18 e7 1d be 3a d9 8a 3e 32 59 58 3e 84 14 0f bf
       -0.15420187 0.27118856 0.21127775 -0.5589068
000210 ff d4 15 be 05 8c 05 bd c2 41 1a be 9f 42 38 be
       -0.14632033 -0.032604236 -0.15064147 -0.17994164
000220 04 30 0e 3f 70 b9 63 be 56 95 1d bf f5 3e 52 bf
       0.55542016 -0.22238708 -0.61555994 -0.82127315
000230 e2 f0 81 3b 8e c7 9f be 34 25 d3 bc 60 0c de be
       0.003965483 -0.31206936 -0.025774576 -0.43368816
000240 1a 0d 66 3d 63 df 8a 3e 47 a6 27 bd 04 1d 3f bc
       0.05616484 0.27123556 -0.04093006 -0.011664633
000250 2d 98 b9 3d ea 1c 13 bf 4c cd ac 3e 90 c2 ad bd
       0.09062228 -0.57465994 0.3375038 -0.084843755
000260 27 b1 a6 bd 9a 6e cc 3e fe 1d d6 be 33 aa 95 3e
       -0.08139258 0.39928132 -0.41819757 0.29231414
000270 f3 47 89 3e 9f 19 e9 bd 96 ab 77 be 9c 46 f7 be
       0.26812705 -0.1138184 -0.24186549 -0.48296058
000280 9d 90 89 be b3 81 1a be 54 89 dd bd 4d 77 fd 3d
       -0.26868144 -0.15088539 -0.10817209 0.123762704
000290 9c 38 ca 3d 13 d0 d8 be a0 c9 ec 3d 90 b0 43 be
       0.09874079 -0.42346248 0.115618944 -0.19110322
0002a0 a9 e2 43 bb ca 16 44 3e f5 ec 41 3d dc ea 35 3e
       -0.0029889739 0.19149318 0.04734512 0.17765373
0002b0 cf 7a af bd 08 7b 00 3d 63 fd bc bd f1 f8 ea 3e
       -0.08568346 0.03136733 -0.09228017 0.45893052
0002c0 dd db b3 3e d1 a0 70 3e d6 3a 83 bd 62 a0 1b bf
       0.3512868 0.23498847 -0.064077064 -0.607916
0002d0 45 3c 1c be 7d 73 d9 be 9e 57 fe be db 60 62 bf
       -0.15257366 -0.42470923 -0.49676222 -0.8842904
0002e0 e7 6c c0 be 30 2a 5e be a5 3d 11 3e 7d 7f 08 be
       -0.37583086 -0.21695781 0.14183672 -0.13329883
0002f0 d1 69 94 be c8 7c 1e 3f 9f f5 7f 3e 92 93 93 be
       -0.28986982 0.6190915 0.24996041 -0.28823525
000300 f1 f0 8e 3e 0d 4f 34 3e 64 89 18 be 2f ef 88 3d
       0.279182 0.1760828 -0.1489616 0.06686246
000310 a1 a2 6a bf 14 96 2e bf c4 00 89 3f 59 c9 64 3e
       -0.916544 -0.6819775 1.0703359 0.22342433
000320 5d ce 79 3c 2a e1 82 bc d2 f3 59 bd 12 48 f3 3d
       0.015246955 -0.015976507 -0.05321104 0.11878981
000330 1c 56 ab 3e 24 4f 82 3e 84 55 4d 3c d7 25 84 bd
       0.33464134 0.25451005 0.012532596 -0.0645253
000340 49 32 90 bd 4c 4b 48 bd 54 70 c1 3e 09 ca 8b 3e
       -0.07040841 -0.048899934 0.37781012 0.27302578
000350 7c de b4 3e 95 a6 79 3f 59 35 e9 be 79 ce d2 3e
       0.35325992 0.9751981 -0.45548514 0.4117315
000360 22 20 26 be c1 40 7d 3e 28 b2 33 3d 20 96 e6 be
       -0.16223195 0.24731733 0.043871075 -0.4503641
000370 14 16 01 3e 5c f6 1b 3e d0 00 ab be 17 8a 6e 3d
       0.12606078 0.15230697 -0.33399057 0.05823716
000380 70 29 00 3f bf e6 d9 3e da b1 78 3f e6 d3 82 3e
       0.5006323 0.42558858 0.9714638 0.2555229
000390 bc eb 03 3f ad c8 26 bf c8 6b 10 3e de 7a fe be
       0.5153158 -0.65149957 0.14103615 -0.49703115
0003a0 75 94 84 3e a0 19 4e be c1 61 10 be ca 99 0f 3e
       0.25894514 -0.20126963 -0.1409979 0.1402351
0003b0 5c 32 33 3f 2a 29 4d 3d c1 d3 14 3f 59 20 c3 be
       0.6999872 0.050088085 0.5813561 -0.38110617
0003c0 92 1c a4 3e 3a 94 d2 be 94 21 dc be c5 68 0f 3d
       0.32053047 -0.41128713 -0.42994368 0.035012025
0003d0 e9 06 be 3d a7 d4 ab 3e 3d 7a 88 bf 48 2c 4f 3e
       0.09278662 0.33560678 -1.0662304 0.20231736
0003e0 72 01 d7 3e 21 91 05 bf 42 cf ff bd cc 03 20 be
       0.4199329 -0.52174574 -0.12490703 -0.15626448
0003f0 1e a2 bb 3e f2 62 35 3e a6 27 bd be 12 a6 bb bd
       0.36647123 0.17713526 -0.36944312 -0.09162535

0.bias f4 [5]
000000 7c d3 cc 3d c1 33 12 3d 31 b7 da 3d c4 ef 12 3d
       0.10001275 0.035693888 0.10679472 0.03587319
000010 45 75 40 3d
       0.046986837

exp_avg f4 [5, 768]
000000 04 50 ed 3a 25 a1 52 ba 6b 0a 1e 3b d4 5f 8e 3a
       0.0018105512 -0.00080348767 0.0024115096 0.0010862299
000010 b9 d3 b5 ba e1 75 52 3b 59 76 89 3a 48 5d f7 3a
       -0.0013872302 0.0032113718 0.0010487541 0.0018872404
000020 91 04 2a bb 78 bd 13 3b d0 b3 be b9 9e f5 c0 ba
       -0.0025942663 0.0022543352 -0.00036373595 -0.0014721637
000030 2c 24 17 bb 13 30 e2 ba 89 b6 bb 3a 3b 4e 09 bb
       -0.0023062332 -0.0017256759 0.0014321367 -0.002095117
000040 62 91 07 3c cb 24 83 3a 01 1d ab 3a f4 92 07 bb
       0.008274408 0.0010005472 0.0013054908 -0.0020686956
000050 5d 54 46 bc fd 18 a4 ba 44 47 04 bb 7a 2f 4c ba
       -0.012105075 -0.0012519654 -0.002018408 -0.0007789057
000060 87 90 58 bb 90 ee da 3a ca 88 f7 ba 6f 11 90 3a
       -0.003304513 0.0016703177 -0.0018885371 0.0010991524
000070 35 38 f3 3a 9f 67 82 ba 28 83 6d 3a 5c 26 46 bc
       0.001855618 -0.0009949094 0.00090603763 -0.0120941065
000080 0b a1 9b 3b 6e cf d9 3b 8c d0 e4 3a 7e fe b0 ba
       0.0047494224 0.006647042 0.0017457171 -0.0013503579
000090 19 69 0c 3b 01 f2 26 3b c9 aa 02 3b cf 0a cf ba
       0.0021424948 0.0025473835 0.0019938222 -0.0015796068
0000a0 9f a3 0e bb 51 ab 5f 3a c1 ea cd ba 88 11 d7 3a
       -0.0021765006 0.0008532303 -0.0015710221 0.0016408423
0000b0 d4 e9 ed ba 19 de da ba f1 53 b2 ba 44 31 f8 3a
       -0.0018151351 -0.001669827 -0.0013605339 0.0018935581
0000c0 50 1b e3 ba 65 82 36 3a 2f 88 b0 ba 53 47 c9 3a
       -0.0017326865 0.00069621793 -0.001346832 0.0015356339
0000d0 ec 70 55 3b 7d 76 03 3b 9b 54 09 3b eb e2 ee 3a
       0.0032568527 0.0020059638 0.002095497 0.0018225586
0000e0 a3 47 34 3b 38 97 28 3b 3c ef 11 3b 6a 8b 05 39
       0.002750852 0.00257249 0.002226784 0.00012735804
0000f0 f9 33 c8 3a 07 af b5 3a 0f dd ff 3a ae 2f c2 ba
       0.0015274278 0.0013861366 0.0019520837 -0.0014815235
000100 91 df b4 ba da 54 18 bb 89 20 3f 3a 20 b6 5d ba
       -0.0013799538 -0.0023243935 0.000729092 -0.00084576197
000110 29 4c 9e 3b 2c 4d 0f bb b6 14 07 bb 8d a7 43 bb
       0.0048308563 -0.0021866066 -0.002061171 -0.0029854507
000120 ce 11 66 ba c2 21 da 3a a5 2d 01 3b 8d cb ca ba
       -0.0008776457 0.0016642141 0.0019711044 -0.001547204
000130 c0 8d 14 3b a2 fd 37 3b 8d 59 e8 3a 4c bc 87 ba
       0.0022667497 0.002807476 0.0017726884 -0.00103558
000140 f4 33 0b bb 3e 6e 93 bb 87 9d 8f ba 4e 42 9b 3a
       -0.0021240683 -0.004499226 -0.0010956981 0.0011845322
000150 02 e3 93 ba a6 d1 8d 3a f7 d9 76 3a 6c 05 e4 ba
       -0.0011282864 0.0010819926 0.00094166346 -0.0017396635
000160 f6 b9 a9 3a 39 a8 a4 b9 22 af 03 3b 18 39 a8 3b
       0.0012949097 -0.00031405853 0.00200934 0.005133759
000170 2e 7d e7 ba 3d eb 51 3b f8 97 38 bb cf 07 12 bb
       -0.0017661208 0.0032031082 -0.0028166752 -0.0022282486
000180 c0 e5 18 bc b7 9f 5c ba ef 42 b2 ba b1 ef 57 bb
       -0.00933212 -0.00084161334 -0.001360027 -0.0032949264
000190 86 6c 85 ba af ab 6a 3a 43 ad 91 ba 5d 9d 09 bb
       -0.0010179437 0.00089519745 -0.0011114258 -0.0020998337
0001a0 72 21 02 bb bf 48 a6 ba d5 c6 5d 3a 13 2f 0c 3b
       -0.001985636 -0.0012686475 0.0008460109 0.0021390363
0001b0 f5 17 1b bb 00 a0 9d 3a 61 0e c8 3a 33 5d 31 bb
       -0.0023665403 0.0012025833 0.0015263074 -0.0027063608
0001c0 5b b9 5e ba 22 7b d8 3a 76 54 0a bb 9e 18 34 3c
       -0.0008496248 0.0016516189 -0.0021107472 0.010992197
0001d0 46 18 a8 3a ab b0 9f 3a ec c4 2b 39 e7 bd 88 ba
       0.0012824617 0.0012183388 0.0001638119 -0.0010432572
0001e0 70 4d b1 bb 19 48 46 3c 19 29 c1 3a c0 cb f6 ba
       -0.0054108426 0.01210215 0.001473698 -0.0018829033
0001f0 93 bb 14 3b e8 bd 0b 3b e8 30 41 bb f3 71 30 3a
       0.002269481 0.002132291 -0.0029478613 0.0006730847
000200 de e3 bb 3a 04 c5 08 3b da 53 4c 3a 84 0f 9d ba
       0.0014334877 0.0020869384 0.0007794477 -0.0011982773
000210 6e ec 1b bb 37 d3 00 bb 24 c3 1b bc cf e5 09 bb
       -0.0023792046 -0.0019657144 -0.009506974 -0.0021041518
000220 03 00 3f ba 38 af d1 3a 14 df 42 bb 31 40 90 ba
       -0.00072860735 0.0015997654 -0.0029735016 -0.0011005459
000230 34 eb 51 3a 91 c0 8b 3b 44 54 d9 3a 2f 3c ae ba
       0.0008007765 0.004264899 0.0016580899 -0.0013293083
000240 29 b2 8b ba 19 bd ca ba 08 cf 85 3a b4 96 2f bb
       -0.0010657954 -0.0015467732 0.0010208795 -0.0026792707
000250 de 31 46 3c b9 a4 e4 3b 78 07 d1 ba a9 f7 f2 ba
       0.01209685 0.0069776443 -0.001594766 -0.0018536943
000260 a4 47 19 3b e3 59 bd bb c1 41 dc ba f4 57 ea ba
       0.0023388648 -0.0057785376 -0.0016804264 -0.0017878995
000270 73 28 be ba 01 ce 95 bb 5e 03 ed 3a 82 76 6e 3a
       -0.0014507904 -0.0045716767 0.0018082669 0.00090966385
000280 ee 6c 63 3a 52 0c e1 ba 90 2c 92 ba ed 72 fd ba
       0.00086755946 -0.001716981 -0.0011152197 -0.0019336619
000290 cb 4e 03 3b 5d 32 b9 bb 37 52 41 bb 6f f2 14 3b
       0.0020035978 -0.0056517557 -0.0029498467 0.002272751
0002a0 9b 48 be 3a 15 e9 fd 3a ae 83 a7 ba 35 05 b4 3a
       0.0014517488 0.0019371832 -0.0012780332 0.0013734462
0002b0 41 e8 9d 3a dd 05 bc ba 3d b2 de ba 12 de 50 3a
       0.0012047366 -0.0014345009 -0.0016990375 0.00079676614
0002c0 3d 80 67 3a d6 93 e1 b9 46 8c 8e ba e1 bc a4 ba
       0.00088310597 -0.0004302549 -0.0010875545 -0.0012568497
0002d0 dc 62 ed 3a bc e3 92 38 49 5d 16 bb 29 97 c1 3a
       0.0018111127 7.004241e-05 -0.0022943786 0.0014769781
0002e0 bf 72 db ba 90 44 35 bb 14 94 a6 3a b3 41 07 bb
       -0.0016742571 -0.0027659275 0.0012708926 -0.0020638525
0002f0 44 cc 71 ba 09 ad e6 3a b3 8e d8 ba 7a f6 cf 3a
       -0.00092238584 0.0017599176 -0.001652202 0.0015866302
000300 c4 4d b2 ba b8 43 c8 3a 88 04 57 3a bf d3 ff 3a
       -0.0013603498 0.0015278971 0.00082022743 0.0019518061
000310 47 ae 1b bb 59 49 d7 3a 1d ca f5 3a 80 97 ab 3a
       -0.0023755 0.0016425058 0.0018752251 0.0013091415
000320 08 c6 5b 3a 40 90 3d 3a 6f d2 8d 3a ba ed 05 3a
       0.0008383696 0.0007231273 0.001082016 0.00051089714
000330 f1 ed b0 ba 36 6c 9a bb 7f 3d fc 3a f6 8a 30 3a
       -0.0013498646 -0.004712607 0.0019244401 0.0006734574
000340 85 68 f8 3a 33 37 be ba 58 50 18 bb bc 1a 05 bb
       0.0018952048 -0.00145123 -0.0023241248 -0.0020310124
000350 66 4d 9f 3b 78 18 24 3b 29 90 e0 ba 97 1b 2c 3b
       0.0048615215 0.0025038999 -0.0017132807 0.0026261562
000360 59 6b 33 3b 85 42 fc ba fa a5 3a ba 05 c9 27 39
       0.0027377217 -0.0019245899 -0.00071200693 0.00016001247
000370 12 ad d2 ba 74 e4 1d bb 10 b1 84 bb 69 56 73 ba
       -0.0016073307 -0.0024092468 -0.004049428 -0.00092825905
000380 84 df 4e ba ae e5 8c 3a 76 d6 c7 3a 87 4b ca 3a
       -0.0007891583 0.0010749602 0.001524641 0.0015433886
000390 ce 30 ce 3a 88 39 97 37 25 36 7e ba 2a 75 5d ba
       0.0015731098 1.8027393e-05 -0.0009697399 -0.000844794
0003a0 23 6d 83 b9 0e 67 c8 3a 3e a9 03 bb 80 fc 23 3c
       -0.0002506758 0.0015289502 -0.002008989 0.010008931
0003b0 8e 75 ce ba 99 0d 89 3a 86 f0 59 bb 58 f7 d5 ba
       -0.0015751587 0.0010456323 -0.0033254935 -0.0016324325
0003c0 dc cb ce 3a 38 1c 0f bb f4 2c d4 3a 5b 23 31 3c
       0.0015777308 -0.0021836888 0.0016187713 0.010811652
0003d0 86 bf bb 3a 83 2d 39 bb fa 53 ba 3a d8 f6 fb 3a
       0.0014324046 -0.0028255887 0.0014215701 0.0019223345
0003e0 28 25 09 3b 6a 9f 07 bb e9 0e 87 3a 8f 9c ac bb
       0.0020926688 -0.0020694383 0.0010304126 -0.0052676867
0003f0 e1 80 83 3b 60 ed 0a 3b f1 af b4 3a 83 50 46 bc
       0.0040131663 0.0021198615 0.0013785345 -0.012104156

exp_avg_sq f4 [5, 768]
000000 bf 9e ae 37 b1 4a cf 36 e1 d6 16 38 2e 0c db 37
       2.0816338e-05 6.177776e-06 3.596291e-05 2.6112506e-05
000010 fe c9 33 37 4e 97 7e 38 3d 8d 18 37 27 34 ca 37
       1.0716261e-05 6.0699233e-05 9.092791e-06 2.4104562e-05
000020 c5 94 fd 37 e9 c3 ef 37 69 6c 24 37 98 47 73 37
       3.0229226e-05 2.8582248e-05 9.800403e-06 1.4500598e-05
000030 af 90 f4 37 c8 dc ad 37 74 2c 37 37 2b e2 f2 37
       2.915444e-05 2.0726016e-05 1.0918e-05 2.8953966e-05
000040 ea f5 a4 39 20 47 e9 36 b7 ba 44 37 b6 23 ec 37
       0.00031463738 6.952221e-06 1.1725983e-05 2.8150022e-05
000050 39 99 2e 3a ec 3b 48 37 d4 83 d7 37 1f 10 08 37
       0.0006660405 1.1934881e-05 2.5691385e-05 8.109985e-06
000060 c9 ac 36 38 27 f8 b0 37 45 96 b6 37 03 b7 5a 37
       4.35531e-05 2.109639e-05 2.1766065e-05 1.3036423e-05
000070 0a 3d 72 37 f6 38 69 37 98 9d 2a 37 61 59 2e 3a
       1.4438536e-05 1.39011445e-05 1.0169482e-05 0.0006650892
000080 a1 e9 1a 39 df 1f 59 39 fd a8 89 37 3e 91 57 37
       0.00014773618 0.00020706606 1.6410364e-05 1.28488155e-05
000090 a6 9e b0 37 30 7d f9 37 cb e8 c3 37 de a4 a9 37
       2.1054711e-05 2.9741408e-05 2.3354214e-05 2.0223142e-05
0000a0 a9 e8 d3 37 69 8d fd 36 78 1a 91 37 07 e0 8e 37
       2.5261501e-05 7.55645e-06 1.7297672e-05 1.703204e-05
0000b0 1e f9 a5 37 8e 76 98 37 4e de 47 37 cd 4b a8 37
       1.9785537e-05 1.8175018e-05 1.1913084e-05 2.0062458e-05
0000c0 31 19 9c 37 c5 7e d6 36 07 c4 3b 37 cb ca 34 37
       1.860838e-05 6.392455e-06 1.119171e-05 1.07760525e-05
0000d0 c5 5c 6c 38 38 c8 a9 37 0c 1c c2 37 58 e0 ad 37
       5.6353183e-05 2.0239604e-05 2.3139663e-05 2.0727675e-05
0000e0 c1 24 53 38 a2 36 09 38 b1 b3 dc 37 e7 28 26 37
       5.034055e-05 3.2714226e-05 2.6309719e-05 9.903894e-06
0000f0 08 9c 76 37 4b 85 84 37 93 82 df 37 99 28 f5 37
       1.46990715e-05 1.5797696e-05 2.6644475e-05 2.922518e-05
000100 be aa 9c 37 3e 72 18 38 d5 0e 17 37 61 50 e6 36
       1.8676157e-05 3.634602e-05 9.003755e-06 6.8638915e-06
000110 9b 62 00 39 de f2 cc 37 b9 d2 af 37 8a af 55 38
       0.00012243765 2.4431789e-05 2.0959751e-05 5.094664e-05
000120 1e e2 53 37 69 4c 55 37 a5 b7 c4 37 ec 5e 9a 37
       1.2629227e-05 1.271358e-05 2.3450537e-05 1.8402432e-05
000130 e6 a4 0d 38 19 ed 33 38 e0 62 73 37 b7 55 fa 36
       3.3770593e-05 4.289774e-05 1.450695e-05 7.460559e-06
000140 35 86 dd 37 c2 42 e1 38 cb 04 6d 37 f7 c6 7f 37
       2.6407748e-05 0.00010741271 1.4127417e-05 1.52455095e-05
000150 0f 5b 1d 37 a3 0c 5e 37 80 0c 84 37 8a 39 ac 37
       9.3791305e-06 1.3235173e-05 1.5741447e-05 2.0530792e-05
000160 9e 99 55 37 3c d2 01 37 04 f1 9f 37 71 54 f0 38
       1.2731556e-05 7.737948e-06 1.9066509e-05 0.0001145982
000170 60 97 b8 37 71 a9 7b 38 af c8 4b 38 fc e2 f7 37
       2.2004999e-05 6.0000868e-05 4.8585873e-05 2.9550392e-05
000180 51 0c c2 39 cd 97 a3 36 26 36 85 37 86 3b 6d 38
       0.0003701174 4.8754505e-06 1.588005e-05 5.656064e-05
000190 ad cb 83 37 c4 1d 2b 37 b3 a1 3a 37 dc f9 cf 37
       1.571126e-05 1.0199325e-05 1.11241125e-05 2.4792673e-05
0001a0 5f 20 c1 37 44 01 6f 37 87 f3 20 37 c9 a6 bc 37
       2.3022467e-05 1.4245805e-05 9.593444e-06 2.2489012e-05
0001b0 93 6f b5 37 18 61 36 37 e7 4a 2d 37 b9 52 22 38
       2.1628837e-05 1.0870652e-05 1.0329043e-05 3.870085e-05
0001c0 49 21 13 37 0e c0 67 37 40 f3 04 38 8c 56 00 3a
       8.769633e-06 1.3813389e-05 3.1697797e-05 0.0004895709
0001d0 d5 83 1f 38 b8 91 09 37 e0 84 39 37 be 94 07 37
       3.8031332e-05 8.199764e-06 1.1057797e-05 8.081259e-06
0001e0 c2 ca 1a 39 76 86 2e 3a ca 6f 45 37 35 f7 b5 37
       0.00014762118 0.00066576095 1.1768143e-05 2.1691996e-05
0001f0 32 5b d4 37 82 a3 03 38 b1 b4 68 38 12 a7 c7 36
       2.5314836e-05 3.1385112e-05 5.5481392e-05 5.9501117e-06
000200 57 0f 41 37 d8 f0 b6 37 76 75 f0 36 e3 e6 0b 37
       1.1507268e-05 2.1808242e-05 7.1662316e-06 8.338803e-06
000210 ad 32 0a 38 8d fb 8f 37 01 42 c8 39 3d ab db 37
       3.294896e-05 1.7164066e-05 0.0003819615 2.6186573e-05
000220 bd 4c 23 37 28 45 95 37 28 8e 3b 38 91 61 25 37
       9.733424e-06 1.7794388e-05 4.4716668e-05 9.857483e-06
000230 92 c7 fd 36 ad 7b b5 38 f5 2a ba 37 db 7d 83 37
       7.5632206e-06 8.653789e-05 2.2192931e-05 1.5675023e-05
000240 b1 2c 05 37 eb 19 67 37 fb f2 a9 37 88 76 fa 37
       7.937823e-06 1.3774707e-05 2.0259517e-05 2.9857518e-05
000250 82 75 2e 3a ff 1a 5d 39 d3 d9 aa 37 d5 b7 c6 37
       0.0006655083 0.00021086259 2.0367012e-05 2.3689043e-05
000260 56 4a 9e 38 7e 39 22 39 2c 13 9d 37 7a f1 cb 37
       7.547873e-05 0.00015470941 1.8724786e-05 2.4311932e-05
000270 d0 f3 8a 37 7a 2f dc 38 b1 01 9e 37 9e bb 93 37
       1.6564416e-05 0.00010499261 1.8835855e-05 1.7611132e-05
000280 f2 d3 33 37 15 95 77 37 b4 a9 25 37 79 54 b3 37
       1.0718579e-05 1.4757058e-05 9.8742785e-06 2.1377798e-05
000290 7d 1b bf 37 0b de 15 39 ec da 27 38 4f 8c f0 37
       2.2781775e-05 0.00014292465 4.001979e-05 2.8675566e-05
0002a0 da 1b 82 37 d5 4c ab 37 32 d4 ce 36 6d 24 7d 37
       1.5510177e-05 2.0420566e-05 6.163981e-06 1.5088456e-05
0002b0 52 a9 4c 37 72 3a 9d 37 58 6f ac 37 23 46 22 37
       1.21987705e-05 1.8743074e-05 2.0555846e-05 9.672282e-06
0002c0 d2 b1 24 37 76 3c b8 36 5b 72 9a 37 81 5f 18 37
       9.816564e-06 5.490666e-06 1.8411482e-05 9.082142e-06
0002d0 04 56 b3 37 71 2b 18 37 40 c7 47 38 cd 0a 28 37
       2.1378517e-05 9.0700205e-06 4.7630863e-05 1.0016095e-05
0002e0 11 e8 71 37 26 98 06 38 65 9c 3d 37 c3 c0 a2 37
       1.4418752e-05 3.208979e-05 1.1301691e-05 1.9401667e-05
0002f0 72 e9 6d 37 3f 49 94 37 75 25 8c 37 b4 78 92 37
       1.4180654e-05 1.7677083e-05 1.6706743e-05 1.7460763e-05
000300 b1 51 41 37 a0 a1 9e 37 ac 64 ac 37 c2 0e 94 37
       1.1522717e-05 1.891033e-05 2.0550877e-05 1.7649847e-05
000310 8f 56 3b 38 23 48 bc 37 75 3e 00 38 9a 2c 99 37
       4.466489e-05 2.2444938e-05 3.0575746e-05 1.825979e-05
000320 52 cf a0 37 1a 6f 35 37 bc 49 51 37 25 b9 c0 36
       1.9170027e-05 1.0814309e-05 1.2474538e-05 5.7435996e-06
000330 67 0a 1b 37 ac f0 06 39 4e 0b b6 37 4a 66 e3 36
       9.241142e-06 0.00012868893 2.1701355e-05 6.777035e-06
000340 8c c9 b9 37 a2 bd a3 37 17 9a 16 38 3b 94 99 37
       2.2147571e-05 1.9519419e-05 3.5906294e-05 1.8308046e-05
000350 d4 f6 10 39 09 7b 3e 38 1b 80 aa 37 ed c6 1d 38
       0.00013824861 4.5414115e-05 2.0325233e-05 3.761698e-05
000360 84 4d f4 37 b4 70 4d 37 bf 4b 07 37 12 f3 95 36
       2.9123163e-05 1.2245193e-05 8.064263e-06 4.468843e-06
000370 72 25 68 37 9b d0 10 38 11 d9 96 38 7b 25 4e 37
       1.3836996e-05 3.4526554e-05 7.192989e-05 1.2287283e-05
000380 65 a7 d5 36 93 f7 11 37 2e 39 6a 37 12 70 d8 37
       6.367382e-06 8.700316e-06 1.39608e-05 2.5801393e-05
000390 fd cd 66 37 44 2c cf 36 57 4b 72 37 93 57 34 37
       1.3757029e-05 6.174234e-06 1.44418655e-05 1.0749226e-05
0003a0 ce 11 9c 37 2e aa be 37 a6 02 a0 37 6b a5 eb 39
       1.860494e-05 2.2729011e-05 1.907472e-05 0.0004494594
0003b0 ef 33 b3 37 fa 9c 8e 37 59 d6 87 38 30 6c 50 37
       2.1362646e-05 1.7000817e-05 6.477227e-05 1.24229555e-05
0003c0 ad bd c6 37 42 5b e3 37 10 42 95 37 b9 db f9 39
       2.3691764e-05 2.7103004e-05 1.7792947e-05 0.00047656687
0003d0 63 27 a4 37 5b 11 27 38 b4 59 81 37 98 8e e1 37
       1.9568664e-05 3.9832066e-05 1.541977e-05 2.688849e-05
0003e0 28 09 e0 37 d7 87 cf 37 de 7d 06 37 38 35 0e 39
       2.6707145e-05 2.4739578e-05 8.016328e-06 0.00013562001
0003f0 06 cd fa 38 b5 8d d1 37 a6 30 1e 37 ba 95 2e 3a
       0.000119591175 2.4980729e-05 9.428861e-06 0.0006659884

exp_avg f4 [5]
000000 33 69 46 3c 07 88 08 bb a5 d5 54 bc 3c e3 4c 3c
       0.012110042 -0.0020833032 -0.01299039 0.012505349
000010 60 cc 1b bc
       -0.009509176

exp_avg_sq f4 [5]
000000 4b ab 2e 3a 33 e4 6c 3a f8 1a 68 3a f6 26 7c 3a
       0.0006663098 0.000903669 0.00088541163 0.0009618843
000010 8c 92 0e 3a
       0.00054387073
